Start:20220123_22_01_26

Seed Set: True , Seed :3
Namespace(batch_size=64, img_size=256, logdir='./log/20220123_22_01_26.log', lr=0.001, model='regnet_x_8gf', n_epochs=200, optim='SGD', pretrained=True, resume=False, root='./data')

Using cuda device

RegNet(
  (stem): SimpleStemIN(
    (0): Conv2d(3, 32, kernel_size=(3, 3), stride=(2, 2), padding=(1, 1), bias=False)
    (1): BatchNorm2d(32, eps=1e-05, momentum=0.1, affine=True, track_running_stats=True)
    (2): ReLU(inplace=True)
  )
  (trunk_output): Sequential(
    (block1): AnyStage(
      (block1-0): ResBottleneckBlock(
        (proj): ConvNormActivation(
          (0): Conv2d(32, 80, kernel_size=(1, 1), stride=(2, 2), bias=False)
          (1): BatchNorm2d(80, eps=1e-05, momentum=0.1, affine=True, track_running_stats=True)
        )
        (f): BottleneckTransform(
          (a): ConvNormActivation(
            (0): Conv2d(32, 80, kernel_size=(1, 1), stride=(1, 1), bias=False)
            (1): BatchNorm2d(80, eps=1e-05, momentum=0.1, affine=True, track_running_stats=True)
            (2): ReLU(inplace=True)
          )
          (b): ConvNormActivation(
            (0): Conv2d(80, 80, kernel_size=(3, 3), stride=(2, 2), padding=(1, 1), bias=False)
            (1): BatchNorm2d(80, eps=1e-05, momentum=0.1, affine=True, track_running_stats=True)
            (2): ReLU(inplace=True)
          )
          (c): ConvNormActivation(
            (0): Conv2d(80, 80, kernel_size=(1, 1), stride=(1, 1), bias=False)
            (1): BatchNorm2d(80, eps=1e-05, momentum=0.1, affine=True, track_running_stats=True)
          )
        )
        (activation): ReLU(inplace=True)
      )
      (block1-1): ResBottleneckBlock(
        (f): BottleneckTransform(
          (a): ConvNormActivation(
            (0): Conv2d(80, 80, kernel_size=(1, 1), stride=(1, 1), bias=False)
            (1): BatchNorm2d(80, eps=1e-05, momentum=0.1, affine=True, track_running_stats=True)
            (2): ReLU(inplace=True)
          )
          (b): ConvNormActivation(
            (0): Conv2d(80, 80, kernel_size=(3, 3), stride=(1, 1), padding=(1, 1), bias=False)
            (1): BatchNorm2d(80, eps=1e-05, momentum=0.1, affine=True, track_running_stats=True)
            (2): ReLU(inplace=True)
          )
          (c): ConvNormActivation(
            (0): Conv2d(80, 80, kernel_size=(1, 1), stride=(1, 1), bias=False)
            (1): BatchNorm2d(80, eps=1e-05, momentum=0.1, affine=True, track_running_stats=True)
          )
        )
        (activation): ReLU(inplace=True)
      )
    )
    (block2): AnyStage(
      (block2-0): ResBottleneckBlock(
        (proj): ConvNormActivation(
          (0): Conv2d(80, 240, kernel_size=(1, 1), stride=(2, 2), bias=False)
          (1): BatchNorm2d(240, eps=1e-05, momentum=0.1, affine=True, track_running_stats=True)
        )
        (f): BottleneckTransform(
          (a): ConvNormActivation(
            (0): Conv2d(80, 240, kernel_size=(1, 1), stride=(1, 1), bias=False)
            (1): BatchNorm2d(240, eps=1e-05, momentum=0.1, affine=True, track_running_stats=True)
            (2): ReLU(inplace=True)
          )
          (b): ConvNormActivation(
            (0): Conv2d(240, 240, kernel_size=(3, 3), stride=(2, 2), padding=(1, 1), groups=2, bias=False)
            (1): BatchNorm2d(240, eps=1e-05, momentum=0.1, affine=True, track_running_stats=True)
            (2): ReLU(inplace=True)
          )
          (c): ConvNormActivation(
            (0): Conv2d(240, 240, kernel_size=(1, 1), stride=(1, 1), bias=False)
            (1): BatchNorm2d(240, eps=1e-05, momentum=0.1, affine=True, track_running_stats=True)
          )
        )
        (activation): ReLU(inplace=True)
      )
      (block2-1): ResBottleneckBlock(
        (f): BottleneckTransform(
          (a): ConvNormActivation(
            (0): Conv2d(240, 240, kernel_size=(1, 1), stride=(1, 1), bias=False)
            (1): BatchNorm2d(240, eps=1e-05, momentum=0.1, affine=True, track_running_stats=True)
            (2): ReLU(inplace=True)
          )
          (b): ConvNormActivation(
            (0): Conv2d(240, 240, kernel_size=(3, 3), stride=(1, 1), padding=(1, 1), groups=2, bias=False)
            (1): BatchNorm2d(240, eps=1e-05, momentum=0.1, affine=True, track_running_stats=True)
            (2): ReLU(inplace=True)
          )
          (c): ConvNormActivation(
            (0): Conv2d(240, 240, kernel_size=(1, 1), stride=(1, 1), bias=False)
            (1): BatchNorm2d(240, eps=1e-05, momentum=0.1, affine=True, track_running_stats=True)
          )
        )
        (activation): ReLU(inplace=True)
      )
      (block2-2): ResBottleneckBlock(
        (f): BottleneckTransform(
          (a): ConvNormActivation(
            (0): Conv2d(240, 240, kernel_size=(1, 1), stride=(1, 1), bias=False)
            (1): BatchNorm2d(240, eps=1e-05, momentum=0.1, affine=True, track_running_stats=True)
            (2): ReLU(inplace=True)
          )
          (b): ConvNormActivation(
            (0): Conv2d(240, 240, kernel_size=(3, 3), stride=(1, 1), padding=(1, 1), groups=2, bias=False)
            (1): BatchNorm2d(240, eps=1e-05, momentum=0.1, affine=True, track_running_stats=True)
            (2): ReLU(inplace=True)
          )
          (c): ConvNormActivation(
            (0): Conv2d(240, 240, kernel_size=(1, 1), stride=(1, 1), bias=False)
            (1): BatchNorm2d(240, eps=1e-05, momentum=0.1, affine=True, track_running_stats=True)
          )
        )
        (activation): ReLU(inplace=True)
      )
      (block2-3): ResBottleneckBlock(
        (f): BottleneckTransform(
          (a): ConvNormActivation(
            (0): Conv2d(240, 240, kernel_size=(1, 1), stride=(1, 1), bias=False)
            (1): BatchNorm2d(240, eps=1e-05, momentum=0.1, affine=True, track_running_stats=True)
            (2): ReLU(inplace=True)
          )
          (b): ConvNormActivation(
            (0): Conv2d(240, 240, kernel_size=(3, 3), stride=(1, 1), padding=(1, 1), groups=2, bias=False)
            (1): BatchNorm2d(240, eps=1e-05, momentum=0.1, affine=True, track_running_stats=True)
            (2): ReLU(inplace=True)
          )
          (c): ConvNormActivation(
            (0): Conv2d(240, 240, kernel_size=(1, 1), stride=(1, 1), bias=False)
            (1): BatchNorm2d(240, eps=1e-05, momentum=0.1, affine=True, track_running_stats=True)
          )
        )
        (activation): ReLU(inplace=True)
      )
      (block2-4): ResBottleneckBlock(
        (f): BottleneckTransform(
          (a): ConvNormActivation(
            (0): Conv2d(240, 240, kernel_size=(1, 1), stride=(1, 1), bias=False)
            (1): BatchNorm2d(240, eps=1e-05, momentum=0.1, affine=True, track_running_stats=True)
            (2): ReLU(inplace=True)
          )
          (b): ConvNormActivation(
            (0): Conv2d(240, 240, kernel_size=(3, 3), stride=(1, 1), padding=(1, 1), groups=2, bias=False)
            (1): BatchNorm2d(240, eps=1e-05, momentum=0.1, affine=True, track_running_stats=True)
            (2): ReLU(inplace=True)
          )
          (c): ConvNormActivation(
            (0): Conv2d(240, 240, kernel_size=(1, 1), stride=(1, 1), bias=False)
            (1): BatchNorm2d(240, eps=1e-05, momentum=0.1, affine=True, track_running_stats=True)
          )
        )
        (activation): ReLU(inplace=True)
      )
    )
    (block3): AnyStage(
      (block3-0): ResBottleneckBlock(
        (proj): ConvNormActivation(
          (0): Conv2d(240, 720, kernel_size=(1, 1), stride=(2, 2), bias=False)
          (1): BatchNorm2d(720, eps=1e-05, momentum=0.1, affine=True, track_running_stats=True)
        )
        (f): BottleneckTransform(
          (a): ConvNormActivation(
            (0): Conv2d(240, 720, kernel_size=(1, 1), stride=(1, 1), bias=False)
            (1): BatchNorm2d(720, eps=1e-05, momentum=0.1, affine=True, track_running_stats=True)
            (2): ReLU(inplace=True)
          )
          (b): ConvNormActivation(
            (0): Conv2d(720, 720, kernel_size=(3, 3), stride=(2, 2), padding=(1, 1), groups=6, bias=False)
            (1): BatchNorm2d(720, eps=1e-05, momentum=0.1, affine=True, track_running_stats=True)
            (2): ReLU(inplace=True)
          )
          (c): ConvNormActivation(
            (0): Conv2d(720, 720, kernel_size=(1, 1), stride=(1, 1), bias=False)
            (1): BatchNorm2d(720, eps=1e-05, momentum=0.1, affine=True, track_running_stats=True)
          )
        )
        (activation): ReLU(inplace=True)
      )
      (block3-1): ResBottleneckBlock(
        (f): BottleneckTransform(
          (a): ConvNormActivation(
            (0): Conv2d(720, 720, kernel_size=(1, 1), stride=(1, 1), bias=False)
            (1): BatchNorm2d(720, eps=1e-05, momentum=0.1, affine=True, track_running_stats=True)
            (2): ReLU(inplace=True)
          )
          (b): ConvNormActivation(
            (0): Conv2d(720, 720, kernel_size=(3, 3), stride=(1, 1), padding=(1, 1), groups=6, bias=False)
            (1): BatchNorm2d(720, eps=1e-05, momentum=0.1, affine=True, track_running_stats=True)
            (2): ReLU(inplace=True)
          )
          (c): ConvNormActivation(
            (0): Conv2d(720, 720, kernel_size=(1, 1), stride=(1, 1), bias=False)
            (1): BatchNorm2d(720, eps=1e-05, momentum=0.1, affine=True, track_running_stats=True)
          )
        )
        (activation): ReLU(inplace=True)
      )
      (block3-2): ResBottleneckBlock(
        (f): BottleneckTransform(
          (a): ConvNormActivation(
            (0): Conv2d(720, 720, kernel_size=(1, 1), stride=(1, 1), bias=False)
            (1): BatchNorm2d(720, eps=1e-05, momentum=0.1, affine=True, track_running_stats=True)
            (2): ReLU(inplace=True)
          )
          (b): ConvNormActivation(
            (0): Conv2d(720, 720, kernel_size=(3, 3), stride=(1, 1), padding=(1, 1), groups=6, bias=False)
            (1): BatchNorm2d(720, eps=1e-05, momentum=0.1, affine=True, track_running_stats=True)
            (2): ReLU(inplace=True)
          )
          (c): ConvNormActivation(
            (0): Conv2d(720, 720, kernel_size=(1, 1), stride=(1, 1), bias=False)
            (1): BatchNorm2d(720, eps=1e-05, momentum=0.1, affine=True, track_running_stats=True)
          )
        )
        (activation): ReLU(inplace=True)
      )
      (block3-3): ResBottleneckBlock(
        (f): BottleneckTransform(
          (a): ConvNormActivation(
            (0): Conv2d(720, 720, kernel_size=(1, 1), stride=(1, 1), bias=False)
            (1): BatchNorm2d(720, eps=1e-05, momentum=0.1, affine=True, track_running_stats=True)
            (2): ReLU(inplace=True)
          )
          (b): ConvNormActivation(
            (0): Conv2d(720, 720, kernel_size=(3, 3), stride=(1, 1), padding=(1, 1), groups=6, bias=False)
            (1): BatchNorm2d(720, eps=1e-05, momentum=0.1, affine=True, track_running_stats=True)
            (2): ReLU(inplace=True)
          )
          (c): ConvNormActivation(
            (0): Conv2d(720, 720, kernel_size=(1, 1), stride=(1, 1), bias=False)
            (1): BatchNorm2d(720, eps=1e-05, momentum=0.1, affine=True, track_running_stats=True)
          )
        )
        (activation): ReLU(inplace=True)
      )
      (block3-4): ResBottleneckBlock(
        (f): BottleneckTransform(
          (a): ConvNormActivation(
            (0): Conv2d(720, 720, kernel_size=(1, 1), stride=(1, 1), bias=False)
            (1): BatchNorm2d(720, eps=1e-05, momentum=0.1, affine=True, track_running_stats=True)
            (2): ReLU(inplace=True)
          )
          (b): ConvNormActivation(
            (0): Conv2d(720, 720, kernel_size=(3, 3), stride=(1, 1), padding=(1, 1), groups=6, bias=False)
            (1): BatchNorm2d(720, eps=1e-05, momentum=0.1, affine=True, track_running_stats=True)
            (2): ReLU(inplace=True)
          )
          (c): ConvNormActivation(
            (0): Conv2d(720, 720, kernel_size=(1, 1), stride=(1, 1), bias=False)
            (1): BatchNorm2d(720, eps=1e-05, momentum=0.1, affine=True, track_running_stats=True)
          )
        )
        (activation): ReLU(inplace=True)
      )
      (block3-5): ResBottleneckBlock(
        (f): BottleneckTransform(
          (a): ConvNormActivation(
            (0): Conv2d(720, 720, kernel_size=(1, 1), stride=(1, 1), bias=False)
            (1): BatchNorm2d(720, eps=1e-05, momentum=0.1, affine=True, track_running_stats=True)
            (2): ReLU(inplace=True)
          )
          (b): ConvNormActivation(
            (0): Conv2d(720, 720, kernel_size=(3, 3), stride=(1, 1), padding=(1, 1), groups=6, bias=False)
            (1): BatchNorm2d(720, eps=1e-05, momentum=0.1, affine=True, track_running_stats=True)
            (2): ReLU(inplace=True)
          )
          (c): ConvNormActivation(
            (0): Conv2d(720, 720, kernel_size=(1, 1), stride=(1, 1), bias=False)
            (1): BatchNorm2d(720, eps=1e-05, momentum=0.1, affine=True, track_running_stats=True)
          )
        )
        (activation): ReLU(inplace=True)
      )
      (block3-6): ResBottleneckBlock(
        (f): BottleneckTransform(
          (a): ConvNormActivation(
            (0): Conv2d(720, 720, kernel_size=(1, 1), stride=(1, 1), bias=False)
            (1): BatchNorm2d(720, eps=1e-05, momentum=0.1, affine=True, track_running_stats=True)
            (2): ReLU(inplace=True)
          )
          (b): ConvNormActivation(
            (0): Conv2d(720, 720, kernel_size=(3, 3), stride=(1, 1), padding=(1, 1), groups=6, bias=False)
            (1): BatchNorm2d(720, eps=1e-05, momentum=0.1, affine=True, track_running_stats=True)
            (2): ReLU(inplace=True)
          )
          (c): ConvNormActivation(
            (0): Conv2d(720, 720, kernel_size=(1, 1), stride=(1, 1), bias=False)
            (1): BatchNorm2d(720, eps=1e-05, momentum=0.1, affine=True, track_running_stats=True)
          )
        )
        (activation): ReLU(inplace=True)
      )
      (block3-7): ResBottleneckBlock(
        (f): BottleneckTransform(
          (a): ConvNormActivation(
            (0): Conv2d(720, 720, kernel_size=(1, 1), stride=(1, 1), bias=False)
            (1): BatchNorm2d(720, eps=1e-05, momentum=0.1, affine=True, track_running_stats=True)
            (2): ReLU(inplace=True)
          )
          (b): ConvNormActivation(
            (0): Conv2d(720, 720, kernel_size=(3, 3), stride=(1, 1), padding=(1, 1), groups=6, bias=False)
            (1): BatchNorm2d(720, eps=1e-05, momentum=0.1, affine=True, track_running_stats=True)
            (2): ReLU(inplace=True)
          )
          (c): ConvNormActivation(
            (0): Conv2d(720, 720, kernel_size=(1, 1), stride=(1, 1), bias=False)
            (1): BatchNorm2d(720, eps=1e-05, momentum=0.1, affine=True, track_running_stats=True)
          )
        )
        (activation): ReLU(inplace=True)
      )
      (block3-8): ResBottleneckBlock(
        (f): BottleneckTransform(
          (a): ConvNormActivation(
            (0): Conv2d(720, 720, kernel_size=(1, 1), stride=(1, 1), bias=False)
            (1): BatchNorm2d(720, eps=1e-05, momentum=0.1, affine=True, track_running_stats=True)
            (2): ReLU(inplace=True)
          )
          (b): ConvNormActivation(
            (0): Conv2d(720, 720, kernel_size=(3, 3), stride=(1, 1), padding=(1, 1), groups=6, bias=False)
            (1): BatchNorm2d(720, eps=1e-05, momentum=0.1, affine=True, track_running_stats=True)
            (2): ReLU(inplace=True)
          )
          (c): ConvNormActivation(
            (0): Conv2d(720, 720, kernel_size=(1, 1), stride=(1, 1), bias=False)
            (1): BatchNorm2d(720, eps=1e-05, momentum=0.1, affine=True, track_running_stats=True)
          )
        )
        (activation): ReLU(inplace=True)
      )
      (block3-9): ResBottleneckBlock(
        (f): BottleneckTransform(
          (a): ConvNormActivation(
            (0): Conv2d(720, 720, kernel_size=(1, 1), stride=(1, 1), bias=False)
            (1): BatchNorm2d(720, eps=1e-05, momentum=0.1, affine=True, track_running_stats=True)
            (2): ReLU(inplace=True)
          )
          (b): ConvNormActivation(
            (0): Conv2d(720, 720, kernel_size=(3, 3), stride=(1, 1), padding=(1, 1), groups=6, bias=False)
            (1): BatchNorm2d(720, eps=1e-05, momentum=0.1, affine=True, track_running_stats=True)
            (2): ReLU(inplace=True)
          )
          (c): ConvNormActivation(
            (0): Conv2d(720, 720, kernel_size=(1, 1), stride=(1, 1), bias=False)
            (1): BatchNorm2d(720, eps=1e-05, momentum=0.1, affine=True, track_running_stats=True)
          )
        )
        (activation): ReLU(inplace=True)
      )
      (block3-10): ResBottleneckBlock(
        (f): BottleneckTransform(
          (a): ConvNormActivation(
            (0): Conv2d(720, 720, kernel_size=(1, 1), stride=(1, 1), bias=False)
            (1): BatchNorm2d(720, eps=1e-05, momentum=0.1, affine=True, track_running_stats=True)
            (2): ReLU(inplace=True)
          )
          (b): ConvNormActivation(
            (0): Conv2d(720, 720, kernel_size=(3, 3), stride=(1, 1), padding=(1, 1), groups=6, bias=False)
            (1): BatchNorm2d(720, eps=1e-05, momentum=0.1, affine=True, track_running_stats=True)
            (2): ReLU(inplace=True)
          )
          (c): ConvNormActivation(
            (0): Conv2d(720, 720, kernel_size=(1, 1), stride=(1, 1), bias=False)
            (1): BatchNorm2d(720, eps=1e-05, momentum=0.1, affine=True, track_running_stats=True)
          )
        )
        (activation): ReLU(inplace=True)
      )
      (block3-11): ResBottleneckBlock(
        (f): BottleneckTransform(
          (a): ConvNormActivation(
            (0): Conv2d(720, 720, kernel_size=(1, 1), stride=(1, 1), bias=False)
            (1): BatchNorm2d(720, eps=1e-05, momentum=0.1, affine=True, track_running_stats=True)
            (2): ReLU(inplace=True)
          )
          (b): ConvNormActivation(
            (0): Conv2d(720, 720, kernel_size=(3, 3), stride=(1, 1), padding=(1, 1), groups=6, bias=False)
            (1): BatchNorm2d(720, eps=1e-05, momentum=0.1, affine=True, track_running_stats=True)
            (2): ReLU(inplace=True)
          )
          (c): ConvNormActivation(
            (0): Conv2d(720, 720, kernel_size=(1, 1), stride=(1, 1), bias=False)
            (1): BatchNorm2d(720, eps=1e-05, momentum=0.1, affine=True, track_running_stats=True)
          )
        )
        (activation): ReLU(inplace=True)
      )
      (block3-12): ResBottleneckBlock(
        (f): BottleneckTransform(
          (a): ConvNormActivation(
            (0): Conv2d(720, 720, kernel_size=(1, 1), stride=(1, 1), bias=False)
            (1): BatchNorm2d(720, eps=1e-05, momentum=0.1, affine=True, track_running_stats=True)
            (2): ReLU(inplace=True)
          )
          (b): ConvNormActivation(
            (0): Conv2d(720, 720, kernel_size=(3, 3), stride=(1, 1), padding=(1, 1), groups=6, bias=False)
            (1): BatchNorm2d(720, eps=1e-05, momentum=0.1, affine=True, track_running_stats=True)
            (2): ReLU(inplace=True)
          )
          (c): ConvNormActivation(
            (0): Conv2d(720, 720, kernel_size=(1, 1), stride=(1, 1), bias=False)
            (1): BatchNorm2d(720, eps=1e-05, momentum=0.1, affine=True, track_running_stats=True)
          )
        )
        (activation): ReLU(inplace=True)
      )
      (block3-13): ResBottleneckBlock(
        (f): BottleneckTransform(
          (a): ConvNormActivation(
            (0): Conv2d(720, 720, kernel_size=(1, 1), stride=(1, 1), bias=False)
            (1): BatchNorm2d(720, eps=1e-05, momentum=0.1, affine=True, track_running_stats=True)
            (2): ReLU(inplace=True)
          )
          (b): ConvNormActivation(
            (0): Conv2d(720, 720, kernel_size=(3, 3), stride=(1, 1), padding=(1, 1), groups=6, bias=False)
            (1): BatchNorm2d(720, eps=1e-05, momentum=0.1, affine=True, track_running_stats=True)
            (2): ReLU(inplace=True)
          )
          (c): ConvNormActivation(
            (0): Conv2d(720, 720, kernel_size=(1, 1), stride=(1, 1), bias=False)
            (1): BatchNorm2d(720, eps=1e-05, momentum=0.1, affine=True, track_running_stats=True)
          )
        )
        (activation): ReLU(inplace=True)
      )
      (block3-14): ResBottleneckBlock(
        (f): BottleneckTransform(
          (a): ConvNormActivation(
            (0): Conv2d(720, 720, kernel_size=(1, 1), stride=(1, 1), bias=False)
            (1): BatchNorm2d(720, eps=1e-05, momentum=0.1, affine=True, track_running_stats=True)
            (2): ReLU(inplace=True)
          )
          (b): ConvNormActivation(
            (0): Conv2d(720, 720, kernel_size=(3, 3), stride=(1, 1), padding=(1, 1), groups=6, bias=False)
            (1): BatchNorm2d(720, eps=1e-05, momentum=0.1, affine=True, track_running_stats=True)
            (2): ReLU(inplace=True)
          )
          (c): ConvNormActivation(
            (0): Conv2d(720, 720, kernel_size=(1, 1), stride=(1, 1), bias=False)
            (1): BatchNorm2d(720, eps=1e-05, momentum=0.1, affine=True, track_running_stats=True)
          )
        )
        (activation): ReLU(inplace=True)
      )
    )
    (block4): AnyStage(
      (block4-0): ResBottleneckBlock(
        (proj): ConvNormActivation(
          (0): Conv2d(720, 1920, kernel_size=(1, 1), stride=(2, 2), bias=False)
          (1): BatchNorm2d(1920, eps=1e-05, momentum=0.1, affine=True, track_running_stats=True)
        )
        (f): BottleneckTransform(
          (a): ConvNormActivation(
            (0): Conv2d(720, 1920, kernel_size=(1, 1), stride=(1, 1), bias=False)
            (1): BatchNorm2d(1920, eps=1e-05, momentum=0.1, affine=True, track_running_stats=True)
            (2): ReLU(inplace=True)
          )
          (b): ConvNormActivation(
            (0): Conv2d(1920, 1920, kernel_size=(3, 3), stride=(2, 2), padding=(1, 1), groups=16, bias=False)
            (1): BatchNorm2d(1920, eps=1e-05, momentum=0.1, affine=True, track_running_stats=True)
            (2): ReLU(inplace=True)
          )
          (c): ConvNormActivation(
            (0): Conv2d(1920, 1920, kernel_size=(1, 1), stride=(1, 1), bias=False)
            (1): BatchNorm2d(1920, eps=1e-05, momentum=0.1, affine=True, track_running_stats=True)
          )
        )
        (activation): ReLU(inplace=True)
      )
    )
  )
  (avgpool): AdaptiveAvgPool2d(output_size=(1, 1))
  (fc): Linear(in_features=1920, out_features=4, bias=True)
)
Train_loss: 1.906592  Train_acc: 0.228125  [1/200]
Train_loss: 1.904097  Train_acc: 0.223438  [2/200]
Train_loss: 1.896031  Train_acc: 0.221875  [3/200]
Train_loss: 1.890401  Train_acc: 0.223438  [4/200]
Train_loss: 1.877272  Train_acc: 0.227500  [5/200]
Train_loss: 1.866607  Train_acc: 0.237500  [6/200]
Train_loss: 1.843141  Train_acc: 0.258929  [7/200]
…
